labs/common/data/half_trained_params.npz (npz, 639898 bytes, 12 tensors)

arr_0 f4 [16, 3, 3, 3]
000000 81 fa 5f be ae de 93 3d 43 5a 3a 3e 06 ed 35 be
       -0.21872903 0.07220207 0.18198495 -0.17766199
000010 04 29 c2 3c 5a 26 04 3c ff ab 7b bd da a1 35 3e
       0.023701198 0.008065784 -0.061443325 0.17737523
000020 e5 a8 26 bc 4e c7 6e be 61 ae b4 3d 88 21 ea 3d
       -0.0101721035 -0.23318216 0.08822323 0.11432177
000030 ba 5f d4 be 64 2c 26 3e 43 b6 86 3e 0b cf 8c be
       -0.41479284 0.16227871 0.2631093 -0.2750171
000040 11 d9 93 3d da f6 02 3e 9d 2d 24 be 03 54 d7 bc
       0.072191365 0.12789479 -0.16033025 -0.026285177
000050 85 bd 60 3e 64 fd ac be 5b 8a 42 3e b2 c3 89 3e
       0.21947296 -0.33787072 0.18998091 0.26907116
000060 55 12 c5 be a0 c0 de 3d 59 f6 0d 3e a4 51 1c 3e
       -0.3849055 0.10876584 0.13863505 0.15265518
000070 60 15 5b bd 20 d6 a8 3d 0d e7 27 be e6 ad 45 be
       -0.05348718 0.08243966 -0.16396733 -0.19304618
000080 d5 65 1f be 64 0d 84 bd 9a 1f ff bd c7 86 2a bd
       -0.1556619 -0.064478666 -0.124571994 -0.04163244
000090 b0 d6 26 be 5f c3 f5 bd a4 69 e6 bd 13 74 27 be
       -0.16292834 -0.12000155 -0.11250618 -0.16352873
0000a0 c9 e0 1b bd 46 55 c2 bb 88 36 36 be f4 f9 91 3c
       -0.03805617 -0.0059305755 -0.1779424 0.017819382
0000b0 92 26 82 3c 38 80 3a be 57 aa 9a 3d e5 41 dc 3d
       0.015887532 -0.18212974 0.07552021 0.10754756
0000c0 37 18 93 3e 67 2e 78 3e 8d eb 4b 3e 1d 85 87 3d
       0.28729412 0.24236451 0.19914074 0.06617186
0000d0 42 91 84 3e fd bc 9a 3e 18 94 18 3e cb ce 9a 3d
       0.25892073 0.30222312 0.14900243 0.07558974
0000e0 a7 3d 3f be 5f 41 c3 3c 9f 79 49 be d2 03 05 bb
       -0.18675862 0.023834882 -0.19675301 -0.0020296467
0000f0 1f 8e 7d bd 96 fa 42 be e9 30 51 be 35 ae d1 bc
       -0.061903115 -0.19040903 -0.20428814 -0.025595764
000100 51 19 ed 3d c4 46 00 be b4 6e 64 be 8e 04 17 be
       0.11577094 -0.12526995 -0.22307855 -0.14747831
000110 d1 c0 dc 3c 07 84 ae 3c ea ae 58 be 34 e5 8b bd
       0.02694741 0.02130319 -0.21160474 -0.068308264
000120 ca 9a e3 bd 8d b3 d9 3d dc 65 f8 bd 48 43 06 be
       -0.11113508 0.1062995 -0.12128803 -0.13111603
000130 d5 59 0e 3d 35 b8 29 be e7 c3 34 3d d1 b4 50 bd
       0.03475364 -0.16574176 0.04413214 -0.05095369
000140 67 3c 04 3e f0 db 24 3e 02 11 d8 3c c7 aa d7 3d
       0.12913667 0.16099524 0.026375297 0.1053062
000150 15 30 6c 3d 70 c4 13 be e3 48 3a 3d 9a 04 65 be
       0.057663042 -0.14430404 0.045479666 -0.22365037
000160 d5 db 8a be 77 7b 36 3c b2 80 b9 be 50 90 c2 bd
       -0.27120844 0.011137835 -0.36231 -0.09500182
000170 19 68 bd bd 93 64 4c be 34 95 63 be d5 3a c3 bd
       -0.09248371 -0.19960241 -0.22224885 -0.09532706
000180 c5 97 99 3d 65 01 91 3b 72 73 66 be 91 ff e1 3d
       0.07499651 0.004425215 -0.22504976 0.110350735
000190 e3 7c 32 be e2 88 9a 3e 23 91 63 be d6 09 8a bd
       -0.17430453 0.30182558 -0.22223334 -0.06740157
0001a0 76 4e 89 3c 45 7b 14 3d dd b2 3a bd 13 ba bd bd
       0.016761046 0.03625037 -0.045580734 -0.092640065
0001b0 df ae 11 be f4 b2 e8 bd 58 0e e9 3c 87 31 13 bd
       -0.14226864 -0.113622576 0.028449222 -0.035935905
0001c0 8c 7a ca 3a 32 e7 88 be ba 98 0c be c6 5b cf 3d
       0.0015447899 -0.26738888 -0.13730136 0.10124926
0001d0 4c 30 b7 bd c8 2b e8 bd 38 95 1a 3e 14 cb b0 3d
       -0.08944759 -0.113364756 0.15095985 0.08632484
0001e0 ab e6 29 be 61 4f 1a be 2a 81 62 be 02 50 88 bd
       -0.16591899 -0.15069343 -0.22119585 -0.06655885
0001f0 63 83 a5 3d 4e 57 17 be 73 58 ce 3d b7 6d 4d 3e
       0.08081701 -0.14779398 0.10075464 0.20061384
000200 7c a3 47 3e a6 ab ec 3d 84 aa fe 3d 29 a3 4b bd
       0.19495958 0.11556177 0.12434867 -0.04971615
000210 e6 8e 38 3d 33 85 38 3e df 3c eb 3a f9 c2 dd 3e
       0.045058154 0.18019561 0.0017947218 0.43312815
000220 1d 8d b6 3c a5 2a aa bd 43 c3 38 3e 0d e5 4e bd
       0.022284085 -0.08308915 0.18043236 -0.05051141
000230 08 ef 97 be 62 a8 9c 3e a8 6f e1 bd 67 e7 25 be
       -0.29674554 0.30597216 -0.11007625 -0.16201554
000240 ea b2 7c 3e 03 15 bc be 36 2d ca bd 51 4c a7 3c
       0.24677625 -0.3673478 -0.098719046 0.020422133
000250 05 f0 39 be f4 1f c6 be 53 ea 6e 3e ec b4 30 bb
       -0.18157966 -0.38696253 0.23331575 -0.0026963307
000260 46 cb 7e 3c 76 dc 3b bd da 4b 8a be 86 6a 93 bd
       0.015551394 -0.045864545 -0.27010995 -0.07198052
000270 a2 f6 8f 3e 9f 09 5e bd 88 de ad be f3 c1 bc 3e
       0.28117853 -0.054208394 -0.3395884 0.36866722
000280 b2 51 d8 3c 28 94 a7 3d 4d 8f a6 bd f0 78 9a 3e
       0.026406143 0.081825554 -0.08132801 0.30170393
000290 ec 07 85 3e 1c bc 08 be a0 54 e5 3d 40 a6 39 bd
       0.25982606 -0.13353008 0.111977816 -0.045324564
0002a0 bf 50 70 bd 00 a3 93 be bb 2e c5 bd 5b 80 90 3e
       -0.058670755 -0.28835297 -0.09628054 0.28222927
0002b0 64 b8 1e 3e e2 30 82 3e 50 7e 51 3d 07 c1 16 3d
       0.15500027 0.2542792 0.05114585 0.03680518
0002c0 d6 b9 11 be 18 f9 8b bc e3 5d ab be 60 2d 18 be
       -0.14231047 -0.01708655 -0.33470067 -0.14861059
0002d0 92 ba 51 3c c9 03 79 3e f6 64 f8 3d c1 f3 d3 3d
       0.0128008295 0.2431785 0.12128632 0.10349227
0002e0 35 77 12 be f2 9b 38 be 15 ee 3e be ff bf a0 bd
       -0.14303286 -0.18028238 -0.18645509 -0.0784912
0002f0 86 a8 4f bc ef 7d 24 3d 90 46 db 3d 66 7e 63 bb
       -0.012674456 0.040159162 0.10706818 -0.003471279
000300 3e c6 8a 3b c0 9c 94 3e d0 47 bd 3e ea e8 1d 3e
       0.004235058 0.2902584 0.3696885 0.15420881
000310 4b 3f 43 3e 20 d7 08 3e f6 97 53 be a8 6f 82 be
       0.19067113 0.13363314 -0.20663437 -0.25475812
000320 a0 bf 82 be d7 6a 9d bc 98 78 86 be 02 74 76 be
       -0.25536823 -0.019215984 -0.2626388 -0.24067691
000330 1d 94 f6 3b 08 9e aa bd d2 42 ab bd 55 34 3d bd
       0.0075249807 -0.08330923 -0.08362354 -0.046192486
000340 1f 64 12 bd 18 42 28 3e c7 21 fb bd 6a ad 1f bd
       -0.035740014 0.16431463 -0.12262302 -0.03898374
000350 07 69 07 3d 99 ab d0 bd 51 78 0b 3d a2 7d 22 3c
       0.033059146 -0.1018898 0.03405029 0.0099176485
000360 e4 df 34 be b4 ac ce bd 33 f3 8f bb f3 89 3f 3c
       -0.17663532 -0.10091534 -0.0043930053 0.0116906045
000370 cc d2 c9 3d 97 0b 4e be 10 cf e8 3d 93 29 e6 3d
       0.098546594 -0.20121609 0.11367619 0.112383984
000380 ba 02 ac bd ce f4 b0 3c 1e b7 2c be 2d 22 d8 3d
       -0.083989576 0.021601107 -0.16866729 0.105533935
000390 6f b1 d2 bd ae 04 0a be 91 d0 29 be 63 c9 42 be
       -0.10287749 -0.13478348 -0.16583468 -0.19022135
0003a0 57 ca f2 bd 93 ed 03 3d 66 aa 1b be 8e 4c 19 3d
       -0.118549995 0.03220899 -0.1520172 0.037426524
0003b0 f0 e6 7d 3d c7 b1 7c be e3 1d 19 3d 2f b1 c4 3b
       0.061987817 -0.24677192 0.037382018 0.0060025672
0003c0 ad bb 11 3c 1e bd 7a be 07 d3 37 bd b6 17 09 3c
       0.008894843 -0.24486205 -0.044878986 0.0083674695
0003d0 a8 0c b1 bd fb 44 26 3d 63 4b 5c be 44 ee e7 bc
       -0.08644992 0.04059313 -0.21513133 -0.028311856
0003e0 26 a5 d0 3d 58 91 06 be 45 a9 17 bb 8a 9c f0 bb
       0.101877496 -0.13141382 -0.0023141664 -0.0073428797
0003f0 cf c2 56 be c9 56 5c bb 4a 9f 80 3b 6c f0 fe bd
       -0.20972751 -0.0033621064 0.0039252387 -0.124482006

arr_1 f4 [16]
000000 d0 c8 88 3c a2 7f 91 3d 46 f3 67 be f1 61 94 3e
       0.016697317 0.07104422 -0.22651395 0.28980973
000010 cf bc 31 3e 62 fd aa 3d 68 e1 8e bc 8d 7f e8 3d
       0.17357181 0.0834911 -0.017441466 0.113524534
000020 e2 72 dc bd 84 c5 7d be 40 bc 49 be 2b 27 bb bd
       -0.107641 -0.24782377 -0.19700718 -0.0913833
000030 fa aa e6 bd 45 61 7c be c3 51 a4 be 31 7a 83 bd
       -0.1126308 -0.2464648 -0.3209363 -0.064197905

arr_2 f4 [32, 16, 3, 3]
000000 55 63 b7 bc 94 12 e5 3d 0f 40 2f 3d 93 95 64 be
       -0.022386232 0.11185184 0.0427857 -0.22322683
000010 4d ab 12 be b1 d1 ff bd 71 60 2d 3e 11 51 ec bc
       -0.14323159 -0.12491167 0.1693132 -0.02884725
000020 ea 0e 48 3d fc 73 92 bd c1 55 4c be 49 42 b5 3d
       0.04884235 -0.071510285 -0.19954588 0.088505335
000030 b3 2f 99 bd 53 8e 23 be e8 b2 f6 3b cb 6a 31 3d
       -0.07479801 -0.15972261 0.0075286515 0.043314736
000040 13 23 28 3e e5 85 9d 3e 07 48 72 3c 83 d1 19 3b
       0.1641963 0.30766216 0.0147876805 0.0023470826
000050 62 50 a2 3c d2 9b dc bb a3 26 8d 3b 22 db b7 bd
       0.01981372 -0.0067324424 0.0043075844 -0.08977343
000060 2e 50 a1 bd 11 86 aa 3a 19 cc 1a 3c d9 a1 02 3c
       -0.07876621 0.0013009926 0.009448075 0.007973158
000070 48 fe 4e be 2c 1a 4e bb ec ab 03 be 22 4f 30 bd
       -0.20214188 -0.0031448705 -0.12858552 -0.043044217
000080 f6 17 3b 3e 4b 6a 6a 3b 30 46 8e 3e 28 0c 98 3d
       0.18270859 0.0035768922 0.27787924 0.074241936
000090 03 df c5 3b 4a 11 de 3c 6e 56 04 bc c6 a4 4b be
       0.006038548 0.027107853 -0.008077247 -0.19887075
0000a0 43 a8 8f be 75 55 49 be a0 68 07 3e c6 08 b4 3d
       -0.2805806 -0.19661506 0.13223505 0.08790736
0000b0 01 a3 29 be 2f e5 88 bc c9 fd b6 bd 05 b4 54 be
       -0.16566087 -0.016710846 -0.089351244 -0.20771797
0000c0 fe 56 37 be 42 11 0a 3d 4d 12 c4 3d 63 f0 10 3e
       -0.17904279 0.033707865 0.09573803 0.141542
0000d0 ae 18 81 bd 79 63 6c bd 91 04 c8 bd 97 da e4 3d
       -0.063035354 -0.057712052 -0.09766496 0.11174505
0000e0 ba fd 4c 3e 9a 06 d7 3e 82 ed dd 3c 2e 8d 2f 3d
       0.20018664 0.41997224 0.027090792 0.04285925
0000f0 1d ee 94 3e 5a ba 7d 3e 0b aa 02 3e 46 cb 22 3e
       0.29087916 0.24778119 0.12760179 0.15897855
000100 94 32 e0 3d 02 e4 db 3d 7d f6 1e 3e 7d 25 5f 3e
       0.10947147 0.107368484 0.15523715 0.21791644
000110 73 43 84 3e 8e af 1b 3d 60 ae 88 3c b0 2c 8e bd
       0.2583271 0.03800922 0.016684711 -0.06942117
000120 5f 75 e8 bc dc fa 11 bd 69 0f 36 3d 36 7c 2c 3d
       -0.02837628 -0.03563963 0.04444829 0.042110644
000130 9d 31 e2 3c 94 43 90 3d 44 6b 02 3b d0 57 17 3d
       0.027611548 0.070441395 0.001990036 0.03694898
000140 a7 54 08 3d b2 e8 85 3e 2e 76 1d 3e fc b7 7b 3a
       0.033283856 0.26154095 0.15377113 0.0009602306
000150 18 b5 6b 3e bb 03 28 3d 6a aa bf 3d bc da af 3d
       0.230183 0.041019183 0.09358676 0.08586642
000160 e9 15 c0 be 0b 94 07 bd ab e7 6f 3d fc 18 8c 3c
       -0.37516716 -0.03310017 0.058570545 0.017101757
000170 61 b0 c6 3d 83 b2 71 bd c7 79 7e bd 54 a4 c5 3c
       0.0970161 -0.059008133 -0.062127855 0.02412621
000180 a1 7f 20 bd 22 22 98 3d 15 8d 85 bc ec f2 b8 3d
       -0.039184216 0.07428385 -0.016302625 0.09030709
000190 12 cb be 3e 6f 31 4b 3d 2d be 37 3d 63 86 91 3d
       0.37264305 0.04960769 0.0448591 0.0710571
0001a0 7a 5c f1 3e 11 1a 35 bf 9c a1 15 3e ca 9b 75 3d
       0.47140867 -0.707429 0.1461243 0.059963025
0001b0 67 27 28 3e 33 d3 cb 3d 19 ca ef bc 30 3b 4a bd
       0.16421281 0.099523924 -0.029271172 -0.04937285
0001c0 1b c3 46 3d 26 18 fe bd ca 82 27 be bc d9 01 3c
       0.04852591 -0.1240695 -0.16358486 0.007925447
0001d0 02 c0 2a be 49 91 46 bd e1 1c b9 b8 72 21 5b 3d
       -0.16674808 -0.0484784 -8.8268665e-05 0.053498693
0001e0 6c eb 80 bd f6 f4 89 bd a2 35 44 bd 08 39 fd bc
       -0.06294903 -0.06736176 -0.04790271 -0.030910984
0001f0 22 68 74 3d 7d 56 2d bd b4 48 dc bd db bc e2 bc
       0.05966962 -0.04231881 -0.107560545 -0.027677944
000200 90 22 2d 3d c8 d8 3e bc 93 ca e1 bd 88 2f 76 bd
       0.04226929 -0.011648364 -0.11024966 -0.060103923
000210 6a 43 e0 bc ba 0e 33 3e 13 8c 54 3e cc 2d 32 3d
       -0.027375896 0.17486086 0.20756559 0.043500707
000220 a3 2c 97 3d 67 a7 05 3d e5 f9 8f 3d a8 c0 7b bc
       0.07381561 0.03263035 0.070300855 -0.015365757
000230 03 9d b2 bd a8 5e 24 bd 97 34 ae bc 0d 8b 05 3e
       -0.08721354 -0.040129334 -0.021265311 0.13041325
000240 f5 67 0e bf fc 24 f6 be 81 b5 cf be 56 a9 81 bf
       -0.55627376 -0.48075092 -0.40568164 -1.0129802
000250 e2 81 54 bf c1 19 24 bf 0a a4 7d be f3 1f 3f bf
       -0.83010685 -0.641018 -0.24769607 -0.74658126
000260 38 97 fb be 6e ab 5a 3e d0 4c 07 bd 24 32 3e be
       -0.49138808 0.21354458 -0.03303224 -0.18573815
000270 5f ef 28 3e 39 3d 84 bd 9a e5 f6 bd 79 90 94 3e
       0.16497563 -0.0645699 -0.12055512 0.29016474
000280 25 65 ed bc 4f 67 4d bd 9a ff d8 3c f0 f1 0b bc
       -0.028978894 -0.05014735 0.026489068 -0.008541569
000290 7a d5 fe bd 47 a2 6d bd 5f 22 b4 3c 32 95 cf bd
       -0.12443061 -0.058016088 0.021989046 -0.101358786
0002a0 5f 10 e6 bd 10 b2 88 bd f9 c6 dd 3d 20 6d e9 be
       -0.11233591 -0.06674588 0.10828967 -0.45591068
0002b0 d2 95 32 be ae 9b fb 3e 57 df d7 be 89 6c 8f 3e
       -0.17439964 0.49142212 -0.42162582 0.28012493
0002c0 41 1d b5 3e 7d c0 4d be 02 69 45 3e 92 09 5d 3e
       0.3537388 -0.2009296 0.19278339 0.21585682
0002d0 1d f0 0e 3e 15 25 67 3e 67 09 e3 3c 53 98 92 bd
       0.13958783 0.2257274 0.027714444 -0.0715796
0002e0 ab 1b 24 bd 42 3f 5b be 58 72 27 3d da 69 ad 3d
       -0.04006545 -0.2141085 0.04088053 0.08467455
0002f0 1f 0f 02 be e5 79 5f 3d 8d 46 bc bb c1 e1 90 bd
       -0.1270108 0.054559607 -0.005745715 -0.07074309
000300 39 61 0a 3e 66 0e 44 3e a6 60 20 3d 1a 98 85 3d
       0.1351365 0.19146118 0.03915467 0.06523152
000310 55 bc bf 3e cd 9a 25 3c 29 25 d8 bb 40 94 c0 3d
       0.37448373 0.010107708 -0.0065962267 0.094032764
000320 98 08 93 3e 55 e9 77 3e ac 5a af 3d 46 68 57 be
       0.28717494 0.24210103 0.08562216 -0.21035871
000330 40 c2 4e 3d 53 d2 2b be af ce 5b bd 52 d5 3a be
       0.05047822 -0.16779451 -0.053663906 -0.18245438
000340 08 05 66 be fb 2b 43 be 00 3a 4c bd 92 67 60 3d
       -0.22462857 -0.19059746 -0.04986 0.054786272
000350 82 02 e7 3d 18 96 d2 bd 58 fd 12 3c d0 6e 5c bd
       0.11279775 -0.10282534 0.008971535 -0.053816617
000360 df bd 14 be 43 67 c4 bd f3 96 07 3d 52 53 3f 3c
       -0.14525555 -0.09590008 0.03310294 0.01167758
000370 a5 7b a7 bc 75 3a 5c bd 46 97 57 bd dd dc 01 be
       -0.0204447 -0.053766686 -0.0526345 -0.12681909
000380 af 68 80 3b 47 6b 79 3c 72 ac 9a bd 0b e8 3e bd
       0.0039187293 0.015223331 -0.075524226 -0.046608012
000390 35 ad 83 bd 7e b4 c9 bc f2 46 47 bd 4e 5b e4 3c
       -0.06429521 -0.024622198 -0.048651643 0.027875569
0003a0 af 5f e8 bb 95 15 6a 3c 58 31 a1 bd 09 11 8f 3c
       -0.0070914845 0.014287372 -0.0787074 0.017464178
0003b0 61 ab b1 bd 5f 26 1d bd 6a e5 f6 3c 5c 02 a1 bc
       -0.08675266 -0.03836667 0.03013869 -0.019654445
0003c0 c3 a4 aa bd 4b ab d9 bd 63 e0 d1 bd 2f f2 e6 bc
       -0.08332207 -0.10628375 -0.102478765 -0.028191654
0003d0 30 46 22 bd 4c 5a 76 3d c4 5d 68 3d 0b 73 cb bc
       -0.039617717 0.060144708 0.056730047 -0.02483513
0003e0 8c 06 8d bd 45 e6 68 bd c5 7c eb 3c 10 51 15 3c
       -0.06886014 -0.056860227 0.028746018 0.009113565
0003f0 fd 7e dc bd a6 c5 3e 3c ce 2d aa bc bb e6 34 3d
       -0.107664086 0.011643803 -0.020773795 0.044165354

arr_3 f4 [32]
000000 42 c9 6c bd fb 8c db 3c f6 62 1e 3e 1d d7 ca bd
       -0.057809122 0.026800623 0.15467438 -0.09904311
000010 f7 d4 52 bd 41 a0 5b 3e 8d c6 bd bd 02 41 f2 bd
       -0.05147263 0.21447851 -0.09266386 -0.118288055
000020 2c 9e 11 be f5 fe 16 be 2e 1b b2 bc 24 c6 d7 bd
       -0.14220494 -0.14745696 -0.021741476 -0.10535839
000030 62 a5 a9 bd 22 80 15 be 9b a8 72 3e 5c 9a d8 bd
       -0.082834974 -0.1459966 0.2369713 -0.10576317
000040 e9 0b 22 bd 0a c1 30 bd db 0f de bd 54 85 37 be
       -0.03956214 -0.043152846 -0.10842868 -0.17921954
000050 8d 35 7f bd 22 3b e3 bc d4 8a 60 3e 4d 67 e3 bd
       -0.06230693 -0.027738158 0.21927959 -0.111036874
000060 fc aa 8b be e0 56 d9 bd b5 4e d0 bd 9e 84 84 bd
       -0.27278888 -0.10612273 -0.10171262 -0.06470607
000070 26 8d ea bd 0a 91 2e 3e a5 40 0e 3e 99 a5 1a bd
       -0.11452703 0.17047516 0.13891847 -0.037755582

arr_4 f4 [64, 32, 3, 3]
000000 b9 d0 a7 bd 65 b9 98 bd 0e 0f 60 bd 09 8e bd bd
       -0.081941076 -0.07457236 -0.054701857 -0.09255607
000010 c8 72 51 bd 58 a7 74 3b d4 95 9a bc 9e 47 a0 bd
       -0.051134855 0.003733119 -0.018870272 -0.0782616
000020 cd eb 81 3d 8e e4 50 3c c0 46 99 bc d7 59 10 3c
       0.063438036 0.012749804 -0.018710494 0.008810482
000030 26 5d 86 bd 1c 61 fb 39 28 93 8f bd b8 51 aa bd
       -0.065607354 0.00047946803 -0.0701049 -0.08316368
000040 3a 6e 47 bd f2 97 d1 bc c5 d2 bb 3c d8 b8 2f bd
       -0.048689105 -0.025585148 0.022927651 -0.04290089
000050 57 96 81 bd 27 f8 03 bd 96 34 25 bd 20 8d 85 bd
       -0.06327503 -0.03221908 -0.040333353 -0.06521058
000060 9e d5 4e 3b 22 b2 c1 bd 27 b6 46 3a fe 7f c6 bd
       0.0031560431 -0.09457804 0.00075802434 -0.09692381
000070 7a c1 92 bc 2a 33 87 bd e0 ec b3 bd 14 c6 24 3a
       -0.017914522 -0.06601556 -0.08785415 0.00062856195
000080 4a d0 27 bd 20 e4 09 bd 7d c4 7a bd a5 c1 00 bd
       -0.040970124 -0.033664823 -0.061222542 -0.031434674
000090 81 fd 7b bc d1 ce 8a bd 94 f7 2a bd f4 3a bb bd
       -0.015380264 -0.06777728 -0.041740015 -0.09142104
0000a0 9d 2a 89 bd 63 c0 bd bd 74 d0 c6 bc b1 54 82 bd
       -0.06697581 -0.092652105 -0.02426932 -0.0636381
0000b0 9d e9 bf bd d2 9e 22 3c cf 20 bc bc 10 d9 8a bd
       -0.0937073 0.009925561 -0.022964863 -0.06779683
0000c0 21 4e 5e bd f7 65 01 bc 12 94 5e bd 09 f9 c1 bc
       -0.05427373 -0.0078978455 -0.05434043 -0.02367832
0000d0 4c 24 41 3d 40 4c 15 3d 2b e8 72 bd 1a 81 af bd
       0.047153756 0.03644967 -0.059303444 -0.08569546
0000e0 ae 36 a4 bd c2 de b6 bc db b2 bc bc 70 a2 cb bc
       -0.08018242 -0.022323016 -0.023034504 -0.02485773
0000f0 65 2e 31 bc bd 96 b7 bd 52 87 ab bd 20 5a 97 bd
       -0.010814284 -0.08964298 -0.0837542 -0.07390237
000100 f3 01 33 bc 8b 95 d8 bd 52 7a e3 bc 53 d9 60 bd
       -0.010925758 -0.10575398 -0.027768288 -0.054894757
000110 59 5a c3 bd 3f d9 a8 bd bd e2 b2 bc 74 ca 1b 3b
       -0.09538717 -0.082445614 -0.021836633 0.0023771795
000120 9e a8 c1 3d 78 cf 43 3d 59 df d9 3d 5f 6a 75 3d
       0.09455989 0.04780528 0.10638303 0.059915897
000130 35 80 d3 3d 76 97 a7 bc 90 71 63 3d 79 87 ac 3d
       0.10327188 -0.020457964 0.055528224 0.08424277
000140 c3 c6 3a 3c 53 c9 a2 bd 91 cc 38 be 2d 2d 1a be
       0.011399928 -0.07948556 -0.18046786 -0.15056296
000150 69 55 e3 bd d3 ef 3a be 92 58 22 be 0b 09 89 3c
       -0.11100275 -0.18255548 -0.158541 0.016727945
000160 0a 67 f3 bd a4 dc 1f be 25 4f 81 bd c1 9f b1 bd
       -0.118848875 -0.15611511 -0.06313924 -0.08673049
000170 40 42 59 bd bc c3 05 bd b3 6c c8 bd af fd fc 3b
       -0.053041697 -0.03265737 -0.09786358 0.007720671
000180 8c 2c 73 bd c0 cb a6 bd 82 65 72 bd 0b 7a d9 3d
       -0.059368655 -0.08144331 -0.059178837 0.10618981
000190 c2 5b 55 3d 87 bf 68 3d ed e4 00 3d 2f 46 c4 3d
       0.05208946 0.05682328 0.03146832 0.09583699
0001a0 df 09 e7 3d cd 85 af 3d 25 cd fd 3c 81 bb 01 3d
       0.1128118 0.08570442 0.03098161 0.03167296
0001b0 99 4e cc 39 ae a0 47 3d e5 6b 96 3b d5 99 b4 3b
       0.00038968472 0.04873722 0.0045904987 0.0055115023
0001c0 bf 9f a8 bc ab f1 85 3d 7f b2 80 bd 28 55 b8 3c
       -0.020583985 0.06540235 -0.062840454 0.022501543
0001d0 e3 1b ba bd 5b 2c c2 3c af ce de 3c 24 cf dd bc
       -0.0908735 0.023702791 0.027198164 -0.027076311
0001e0 23 da 02 3d da 4a 4d bd 2f bd 97 bb 0f 25 0e 3d
       0.031946313 -0.050120212 -0.0046307067 0.03470331
0001f0 79 9c 8a bc 9f 07 b5 3b 3d 19 70 bd 43 15 d2 3a
       -0.016920315 0.00552459 -0.05861782 0.0016028065
000200 fb 37 bf 3c a4 a1 1f 3b 83 56 26 bd 25 77 9f 3c
       0.023342123 0.002435782 -0.040609848 0.019465992
000210 4d d2 22 bd 18 b6 c9 bd 59 3f 9f bc a3 1d 60 3d
       -0.03975134 -0.09849185 -0.019439386 0.054715764
000220 78 1b dd 3d 59 0e bb 3d b0 b5 0d 3d 32 14 c2 3d
       0.10796255 0.09133596 0.0345971 0.09476508
000230 b8 dc e8 3d d2 42 dc 3d 4d 5c a1 3d 93 eb e2 3d
       0.11370224 0.107549325 0.07878933 0.110800885
000240 2a e8 35 bc 8b 24 33 bd 62 22 63 3c de 9f 26 bd
       -0.0111027155 -0.043736022 0.013863178 -0.040679805
000250 f7 5c e9 3b 49 26 93 3b 8d d5 80 bd 36 9b a3 bd
       0.007121678 0.004490648 -0.062907316 -0.079885885
000260 ed 1c 88 bc 9b 69 9a bd 45 43 be bc 8a 94 61 3b
       -0.016615355 -0.07539674 -0.023225436 0.0034420812
000270 eb db e2 bb ed 0f c4 3b b5 ff 99 bd c9 bd f7 3b
       -0.006923189 0.005983344 -0.07519475 0.007560466
000280 c9 ae 5c 3a da ae 9b bd d1 a4 a4 3d d9 1d 77 3c
       0.0008418379 -0.0760171 0.08039249 0.0150828
000290 8a 82 71 3d 9d e4 21 3d a3 f5 cf 3d 84 b3 51 3d
       0.058962382 0.039524663 0.10154273 0.05119659
0002a0 70 21 68 3d 10 29 cd 3d fa e5 7f 3d 78 db 3f bd
       0.056672513 0.10017598 0.062475182 -0.04684016
0002b0 ed 85 9d bc a7 bf 1e bd 3d 42 c4 3c 4b 51 38 bd
       -0.0192289 -0.038756993 0.023957366 -0.044999402
0002c0 45 2e 06 bd bc 0f 77 bd 0b 7d 0e bd 02 72 5f bd
       -0.03275897 -0.06031774 -0.03478722 -0.054552086
0002d0 e8 46 c2 bd 3c 8c a8 bd d8 e5 56 bd c8 9f 90 bc
       -0.094861805 -0.082298726 -0.05246529 -0.017654315
0002e0 d0 2b 5b 3b eb 38 cf bd c3 c5 3e bd c3 5e 75 bb
       0.0033442862 -0.10118278 -0.04657532 -0.0037440516
0002f0 3f 1b e7 bc df c4 4a bc d1 d0 2e bd 32 ba 3c bd
       -0.028211234 -0.012376039 -0.04267961 -0.046076007
000300 e4 d3 c6 bb e1 69 61 3c 3f ea 9c bd 69 5a 55 bc
       -0.00606774 0.013758154 -0.076618664 -0.013022044
000310 2d ca 8c bd 90 b8 b4 bb ea 02 fd 3c c8 27 50 3b
       -0.068744995 -0.0055151656 0.030885179 0.0031761993
000320 63 1e b0 bc 06 13 33 bd c9 98 59 3d 16 d5 02 3d
       -0.021498865 -0.043719314 0.053124223 0.031941496
000330 e5 15 14 3e cb cd 1c 3d 6f b9 94 bc 1f fd 07 3d
       0.14461477 0.038282197 -0.018154828 0.03320038
000340 20 b1 b8 3c fd f5 c3 3c 80 85 9f 3d 7f 0d a2 3d
       0.022545397 0.023921007 0.07789135 0.079127304
000350 9d 0e e8 3c d1 16 ba 3d 07 43 f0 bc 8c b8 1f bd
       0.02832728 0.09086383 -0.029328836 -0.038994357
000360 3e ce 23 bd 48 ec c5 bd 1b 73 c5 3b fd 98 19 bd
       -0.03999161 -0.09664208 0.0060256845 -0.037499417
000370 2c 15 8b 3c 9f 61 ee 3d 54 ef b8 bc 9e 73 6f bd
       0.016977869 0.116397135 -0.022575058 -0.05845987
000380 97 18 91 bc 2e 1e 31 3c f3 cd 72 bc c5 41 3e bc
       -0.01771192 0.010810418 -0.01481961 -0.01161236
000390 8b db a5 bd 84 c4 ad bd 9e 02 ac bd 40 bd ff bc
       -0.08098515 -0.08484748 -0.08398937 -0.031218171
0003a0 be b5 82 bd c1 b3 7c bd 0e 0e 3b 3d 6d 8b 19 bc
       -0.06382321 -0.061694864 0.0456677 -0.009371621
0003b0 b1 f1 27 bc 63 8b 8f bc f3 36 0b 3c 63 9e 01 bd
       -0.010250495 -0.01752252 0.008496988 -0.03164519
0003c0 2d 97 8d bc 3d 08 f0 3b b1 a4 6c 3c fb fd 16 3d
       -0.017284 0.007325201 0.014443562 0.03686331
0003d0 24 18 2c 3d fa 1b 13 3d 60 67 b5 3d f6 1f a6 3d
       0.04201521 0.035915352 0.08857608 0.08111565
0003e0 62 4c 48 3d 7b ca 03 3e 35 12 c9 3c fd 73 0f 3e
       0.04890097 0.12870209 0.024544815 0.1400909
0003f0 04 f3 ba 3c e8 dc 81 3d 30 59 83 3d 43 13 a8 3d
       0.022820957 0.06340963 0.064134955 0.08206799

arr_5 f4 [64]
000000 db 3c 98 bd 2a 9c 10 bd e6 af 82 be f9 0a 95 be
       -0.07433482 -0.03530518 -0.25524825 -0.29109934
000010 2c df 01 be 32 27 23 bd 88 e1 08 3e d9 5b cb bd
       -0.1268279 -0.0398323 0.13367283 -0.09929628
000020 6b a7 2d be e8 77 11 be 7e e1 07 3c ed 1c 52 3e
       -0.16958396 -0.14205897 0.008293508 0.20518847
000030 1e ed 80 be ee 7e 57 bd 82 8b 86 3e 76 c5 0c bc
       -0.25180906 -0.052611284 0.2627831 -0.008592
000040 7b eb 54 bd 33 de 79 bd 77 87 81 bd da d0 68 3e
       -0.051982384 -0.06100292 -0.06324666 0.2273592
000050 55 84 5b be 4a fc 8a bd f8 88 61 3e d9 b0 5a 3e
       -0.214372 -0.067864016 0.22024906 0.21356525
000060 e9 5a a4 bd 3f 26 3d bd 88 5f 3c be 77 a5 94 3d
       -0.08025152 -0.046179052 -0.18395817 0.072581224
000070 5f a1 8e bd b6 2c 39 3e 8f 1b ee bd e2 bf 82 bd
       -0.06964373 0.18083462 -0.1162635 -0.06384255
000080 e3 48 77 bd 20 19 63 bd 18 97 c6 3e 25 5d 2a bd
       -0.060372245 -0.055443883 0.3878715 -0.041592736
000090 c5 84 6e bd 53 8a 81 3e 2e d0 80 bc 04 aa fe 3e
       -0.058232088 0.25300846 -0.015724268 0.49739087
0000a0 ad 0b dd bc 8c b5 f8 bd a2 dd d1 3d 11 fa d1 bc
       -0.026983107 -0.12144002 0.10247351 -0.025631936
0000b0 57 7f 08 be 4c 6f a0 bd 66 0b 1b be ea 41 97 3e
       -0.13329826 -0.07833728 -0.15141067 0.29542476
0000c0 da 6c 87 3e 2a 16 86 3e cb ba c1 bd ab 17 b5 bd
       0.26450235 0.26188785 -0.09459456 -0.08842405
0000d0 cd 48 07 be 23 65 2d bd b0 34 90 3d 2f c3 5e 3d
       -0.13211365 -0.04233278 0.07041299 0.05438536
0000e0 0c 64 c0 3c e7 51 c5 bd 0e 3e 8f 3e 69 82 36 3e
       0.023485206 -0.09634762 0.2797703 0.17823185
0000f0 ed 61 61 3e 68 74 83 bd 71 f0 3a 3d b1 ac f4 bc
       0.22010012 -0.06418687 0.04563946 -0.029867502

arr_6 f4 [128, 1024]
000000 0e f3 24 bd 9e dd 88 bd 6e 0a e8 bc a4 18 39 bd
       -0.040270858 -0.06682895 -0.028325286 -0.045189515
000010 61 4d 89 bd 6d 9d 99 bd 75 f0 d8 bc d9 48 25 bd
       -0.06704212 -0.0750073 -0.026481846 -0.040352676
000020 1a cb 23 bd a2 ff 95 bd 55 1e 17 bd e5 42 9d bd
       -0.039988615 -0.07324149 -0.03689416 -0.07678775
000030 a8 c0 60 bd 0e 6a 76 bd a1 58 1b bd 09 07 68 bd
       -0.05487123 -0.060159735 -0.03792632 -0.056647334
000040 f9 31 d0 bc 5f 63 09 bd 32 86 49 bd e0 ed 3a bd
       -0.025414454 -0.033542033 -0.049200244 -0.04563701
000050 61 f1 47 bd 64 11 f2 bc f5 8a 7a bd 7e 25 7b bd
       -0.04881418 -0.029549308 -0.061167676 -0.061315052
000060 72 a6 2b bd ed 11 e7 bc 96 eb 05 bd d1 49 86 bd
       -0.04190678 -0.02820679 -0.032695375 -0.06557048
000070 1e 52 84 bd 62 a6 54 bd 7b cb 89 bd b3 fc ea bc
       -0.06460975 -0.051916488 -0.06728264 -0.02868495
000080 df 8c 0e bd af a7 38 bd 31 f3 98 bd de 2c ab bd
       -0.034802314 -0.04508179 -0.0746826 -0.08358167
000090 72 fb 96 bd ed 65 31 bd fc fe 92 bd 13 72 69 bd
       -0.07372178 -0.043310095 -0.07177541 -0.056993555
0000a0 3e 7c 2a bd b3 9b 36 bd a5 7f 26 bd 1d 5a 9f bd
       -0.041622393 -0.04458208 -0.040649075 -0.077808596
0000b0 b6 32 31 bd e8 fd 80 bd 3c 1f 18 bd 9e 99 32 bd
       -0.043261252 -0.06298429 -0.037139162 -0.043603532
0000c0 f4 34 26 3c 0e 68 f1 3c da 91 d1 3c 0b 88 c5 3b
       0.010144461 0.029468562 0.025582243 0.0060281805
0000d0 51 92 9e b9 09 b0 f7 3c 08 e0 8b bc 72 d5 f8 bc
       -0.00030245123 0.030235307 -0.0170746 -0.030375216
0000e0 74 13 5f bc 0e b9 90 bc f8 33 46 3c 42 71 9d 3d
       -0.013615478 -0.017666366 0.012097351 0.07687618
0000f0 82 46 78 bc b8 96 fb 3c 58 6a 38 3c 3b 9e d6 3c
       -0.015153529 0.030711517 0.011255823 0.026198497
000100 22 c0 a8 bd c1 0c a2 bd 99 b6 7b bd e1 9e 78 bd
       -0.082397714 -0.07912589 -0.061453436 -0.060698394
000110 a0 2a 10 bd 8a 40 32 bd e0 dc 8e bd 6c ba 32 bd
       -0.0351969 -0.04351858 -0.06975722 -0.043634817
000120 d5 05 a3 bd 44 28 91 bd e7 6d a0 bd 8b a6 14 bd
       -0.07960097 -0.07087758 -0.07833462 -0.03629164
000130 41 23 43 3d 6a cd 09 3d c9 70 6a 3d 1c 58 34 3d
       0.047641043 0.033643164 0.057236467 0.04402934
000140 92 2c c3 bb 86 7a 80 3c ec fa e6 bc 92 ad 7f bc
       -0.005956241 0.015683424 -0.02819582 -0.015605347
000150 b2 55 b5 bc 61 95 7c 3a 92 78 e9 bc e3 c7 64 3c
       -0.02213559 0.00096352963 -0.028499875 0.013963672
000160 71 a8 26 3c 27 21 07 3c 40 9d e8 3c b9 54 df 3b
       0.0101719955 0.00824765 0.028395295 0.0068155196
000170 13 91 9b 3a 5e 7d ad 3c e8 90 7c 39 0d 1a 87 3c
       0.0011868797 0.021177944 0.00024086575 0.016491914
000180 7a e7 02 bd a2 eb 7a bd 42 e5 14 bd db 28 93 bd
       -0.031959035 -0.061259873 -0.03635145 -0.07185527
000190 55 c7 3f bd fa 6f 82 bd 3e 87 8b bd 44 09 9a bd
       -0.046820957 -0.06369014 -0.06812905 -0.075212985
0001a0 d5 2c 55 bd 16 2b a1 bd b6 f1 61 bd 28 36 8f bd
       -0.05204471 -0.07869546 -0.055162154 -0.06992751
0001b0 7e 9b 0c bd 2a 54 89 bd 68 d1 65 bd c2 7d 13 bd
       -0.034327976 -0.06705506 -0.05610791 -0.036008604
0001c0 f3 95 b9 3c c7 ee 15 3c d9 8d 93 ba 3f 82 4f 3c
       0.02265451 0.009151167 -0.0011257484 0.01266533
0001d0 cc fd 8a bc 51 b9 6c bb 28 37 18 bb 80 8e b5 3c
       -0.016966723 -0.00361212 -0.0023226235 0.022162676
0001e0 ca a2 56 3c 78 9a 51 bc 32 1c ee bc fa 23 db bc
       0.013100335 -0.012793176 -0.029066179 -0.026750553
0001f0 dd 29 f5 bc a4 01 71 3c d6 c2 4a 3b 25 4e 28 3c
       -0.029927189 0.014709864 0.0030938885 0.010272537
000200 e4 03 ce 3c 72 fa dc bc ed a4 d1 3c aa 25 27 3c
       0.02514834 -0.02697489 0.025591338 0.010201851
000210 e4 86 26 bc 1d 69 be 3c bb e6 9c bc ba 95 78 ba
       -0.010163996 0.023243481 -0.01915299 -0.000948276
000220 ec 5b 8a bc 7d 1b cf 3c 62 d2 93 3c c4 f8 94 bc
       -0.016889535 0.025281662 0.018044654 -0.018185027
000230 25 c6 15 b9 84 c7 57 bc fb d7 d9 bc 8b 01 7e 3c
       -0.00014283562 -0.013170127 -0.026592245 0.015503298
000240 80 66 c1 3b 39 ea 80 bc 81 45 ed bc 3c 29 4e 3c
       0.0059021115 -0.015736686 -0.028963806 0.012583073
000250 a4 12 94 3c 1f 14 91 bc 05 11 93 3a c1 37 e8 bc
       0.018075295 -0.01770979 0.0011220282 -0.028346898
000260 08 f1 19 3c b8 78 f9 bc 08 20 9d bc a2 a7 96 bc
       0.009395845 -0.030453071 -0.019180313 -0.01839048
000270 10 c1 a4 bc a1 7d ad bc 55 41 c4 3b 4b a2 bf 3c
       -0.02011159 -0.021178069 0.0059892335 0.023392817
000280 d6 fc 0c bd 8d aa a2 bd 70 4f 2c bd 47 f5 ae bd
       -0.03442081 -0.07942686 -0.042067945 -0.08542877
000290 e0 e5 ac bd 25 9d a4 bd 06 07 44 bd 2f 96 11 bd
       -0.08442283 -0.080377854 -0.04785826 -0.035543617
0002a0 60 cd 56 bd f7 0c 5c bd ce 2c 5a bd d2 23 1f bd
       -0.052441955 -0.0537233 -0.053265385 -0.03885252
0002b0 3d f1 ac bd e6 aa 5c bd e7 24 64 bd e9 27 88 bd
       -0.0844445 -0.05387392 -0.055699255 -0.06648237
0002c0 9a b6 57 bd 42 c0 57 bd 8a 1d 62 bd da 64 2c bd
       -0.052664377 -0.052673586 -0.055203952 -0.042088367
0002d0 13 50 8b bd db 6c 68 bd 5d 1c 8d bd fa ff d2 bc
       -0.06802382 -0.056744438 -0.068901755 -0.025756825
0002e0 57 08 3c bd d8 8a fc bc 73 38 74 bd 78 49 13 bd
       -0.04590639 -0.030827925 -0.059624147 -0.035958737
0002f0 f1 b7 8d bd ce 52 d1 bc 0b df 9b bd 68 1f de bc
       -0.0691985 -0.02555218 -0.076109014 -0.027114585
000300 34 7f 43 bd 7e 2a eb bc e4 e4 3f bd 8a 30 a9 bd
       -0.047728732 -0.028706785 -0.046849146 -0.08261211
000310 59 b0 cd bc 96 17 11 bd bb 75 54 bd 6c bd 18 bd
       -0.025108503 -0.035422884 -0.05187009 -0.03729002
000320 93 07 1a bd 21 0c 48 bd c8 20 06 bd 59 64 23 bd
       -0.03760488 -0.048839692 -0.032746106 -0.03989062
000330 9c 0f 76 bd 23 73 ac bd 67 3a 72 bd 1e 1c 53 bd
       -0.06007348 -0.08420398 -0.059137728 -0.051540487
000340 f1 dd 5c bd 0e 3e 1f bd 37 b9 36 bd b6 e3 10 bd
       -0.053922597 -0.03887754 -0.04461023 -0.035373412
000350 2b d2 5c bd 53 1c 88 bd 63 63 27 bd 40 58 52 bd
       -0.05391137 -0.066460274 -0.040866267 -0.051353693
000360 78 09 91 bd 86 63 84 bd a8 20 35 bd e8 0f c6 bc
       -0.07081884 -0.06464295 -0.044220597 -0.024177507
000370 02 e4 8b bd b7 da 01 bd bb d1 87 bd 65 ea e1 bc
       -0.068305984 -0.031702723 -0.066318 -0.027577588
000380 5b 3b 13 bc 51 99 6f 3c 13 de 8c 3d 97 92 a1 3b
       -0.008986319 0.014623956 0.06878295 0.004930805
000390 b2 7d cd 3c a9 f9 88 bc e1 75 f2 bc 7e f6 98 bc
       0.02508435 -0.01672061 -0.029597225 -0.018672224
0003a0 28 a9 0f 3d cc 97 5e 3d 94 58 28 bc de 49 9b bc
       0.03507343 0.054343984 -0.010275025 -0.018956121
0003b0 99 fb 00 3c bf 64 db bb 44 fa f3 3c 57 94 06 bc
       0.007872486 -0.0066953595 0.029782422 -0.008214078
0003c0 f3 22 13 39 68 22 a9 bc 63 8b 93 bc a8 2b 98 3c
       0.00014032032 -0.020646289 -0.0180108 0.018575504
0003d0 2e 2d bc bc 57 97 d4 3c b1 f9 f1 bb a3 b1 91 3c
       -0.022970762 0.02595107 -0.007384502 0.0177849
0003e0 c0 39 eb 3c 17 1b 7a bc 92 33 03 3c fa 52 f1 bc
       0.02871406 -0.015265248 0.008007901 -0.029458512
0003f0 c6 05 a3 3b 6c c3 b0 bc 07 0f 42 bc 31 1f c0 3c
       0.0049750535 -0.02157756 -0.011844403 0.023452373

arr_7 f4 [128]
000000 dd c4 8b bd bb 86 79 3e 20 53 19 3e 3c 95 78 bd
       -0.06824658 0.24367802 0.14973116 -0.060689196
000010 88 05 0e 3e 75 e7 ad bd 9e 08 25 bd 0a 44 ce 3e
       0.13869298 -0.084914126 -0.04029142 0.40286285
000020 fc ed c1 bd 39 18 0f be 36 3f a7 be 8d b8 9f bd
       -0.0946922 -0.13974084 -0.32665414 -0.07798872
000030 e6 fc d6 bd 04 d9 9e bd 59 60 7d 3e f0 07 30 3e
       -0.10497455 -0.07756236 0.24743785 0.17190528
000040 1e 8f d4 bd b2 41 ab 3d 73 75 bb 3d 68 2f 67 bd
       -0.1037886 0.0836214 0.09153261 -0.056441694
000050 d3 bd dc bc ad 28 b3 bd 80 b7 26 be e2 a1 6d bd
       -0.026945984 -0.08747993 -0.16280937 -0.05801571
000060 a3 97 71 3c 23 f7 a7 bd 92 73 85 bd 60 22 d6 bd
       0.014745626 -0.082014345 -0.06516184 -0.10455775
000070 34 54 ab bd 13 dd ef 3d 9a 5c 7d bd 73 2f 77 bd
       -0.0836567 0.117120884 -0.06185589 -0.060347985
000080 7b c3 3e 3e 68 6d 2c 3e 07 43 01 be 68 5c c0 3e
       0.18629257 0.1683861 -0.12623225 0.375705
000090 f2 04 4a 3e 98 65 87 bc d5 39 ad bd 1b b4 55 bd
       0.19728449 -0.016527936 -0.08458296 -0.052173715
0000a0 9e 05 28 bd 45 a5 21 bd a8 4a 85 3e ef df 0f 3d
       -0.041020982 -0.039464254 0.2603352 0.03512567
0000b0 9c 88 bf 3e a0 8b c2 bd 36 af 55 3d 45 31 7f 3d
       0.37408912 -0.094992876 0.052169047 0.062302846
0000c0 33 25 dd 3d 85 0b da bc d2 9f f4 bd 9a 75 21 bd
       0.10798111 -0.026616821 -0.11944546 -0.039418794
0000d0 fa ca be bd ce e3 cc be d9 2a c2 bd 27 5b 68 3e
       -0.093160585 -0.4001755 -0.09480829 0.22691022
0000e0 da 10 97 bd cb 4d 5b 3e e0 14 54 bd 8f d1 08 ba
       -0.07376261 0.21416394 -0.05177772 -0.0005219215
0000f0 f5 d8 49 3e c9 90 b1 be fe 31 7c bd c5 2b 54 3d
       0.19711669 -0.34680775 -0.061571114 0.051799554
000100 eb 37 1a 3e ab 13 b8 3e 27 d5 a1 3c 9d 3e 84 bd
       0.15060394 0.35952505 0.01975496 -0.06457255
000110 85 e8 79 3d 09 5a 64 bd d6 16 65 3d 39 9f 0f bd
       0.061012764 -0.055749927 0.05592998 -0.035063956
000120 64 6f c8 bd 23 03 1f 3e 4e db 85 3e 9f 8d b7 3e
       -0.09786871 0.1552854 0.2614388 0.35850236
000130 d3 b1 8f bd d8 73 7f bd c4 3e 07 3d 17 f5 d1 bd
       -0.07016339 -0.062366337 0.033018842 -0.10251825
000140 b7 1f 95 bd 5d 29 5e 3b 6c a8 54 3e 57 54 bd bd
       -0.0728144 0.0033899166 0.20767373 -0.09244602
000150 3b 67 9a bd 23 aa 6c bd d4 26 7b 3e c4 0e 6d bd
       -0.07539221 -0.057779443 0.2452653 -0.05787541
000160 b7 20 70 3e 04 f1 14 bd 3a 69 df bd 8c d0 8e bd
       0.2344998 -0.036362663 -0.10908742 -0.06973371
000170 f4 5f a9 3e 84 18 1c be fc 3c 4b 3e 15 8a cb bd
       0.3308102 -0.15243727 0.19847482 -0.099384464
000180 78 91 b8 bd f4 3c c2 bd 25 4f 9b bd 01 da e3 3b
       -0.09012121 -0.09484282 -0.07583455 0.0069534783
000190 99 33 91 bd 1b 0e a0 bd eb d6 82 bd c5 bd 73 bd
       -0.070899196 -0.078151904 -0.063886486 -0.05950715
0001a0 9a e8 f3 bc c0 39 9f 3c dd 05 d6 bd 23 00 52 3e
       -0.029773999 0.019436717 -0.10450337 0.20507865
0001b0 65 90 b3 3c fe ef bd 3c 07 80 9d bd 9f 36 93 bd
       0.021919439 0.023185726 -0.07690435 -0.071881525
0001c0 6c 5d 84 bd 5d 29 9c bd 50 5c 34 bd 35 a0 8c bd
       -0.06463131 -0.07625077 -0.04403335 -0.068664946
0001d0 df 54 74 3e d6 35 83 bd d0 82 a3 3d ef 0a 89 bd
       0.23860501 -0.06406753 0.07983935 -0.066915385
0001e0 79 35 82 bd 1d 27 f3 3e b1 39 70 bd 0b 16 5a 3e
       -0.06357855 0.4749078 -0.05864877 0.21297471
0001f0 8d 16 19 bd b9 29 88 be 70 29 99 bd 8b 53 49 bd
       -0.03737502 -0.26594332 -0.07478607 -0.04915194

arr_8 f4 [32, 128]
000000 fb 5d 88 3d cb 89 6e be d3 93 55 be 87 ef d5 3a
       0.0665855 -0.23294751 -0.20857172 0.0016321995
000010 d7 a5 85 3c 67 dd 1e 3c be 5e bf bc 0a c4 21 3c
       0.01631443 0.009696341 -0.023360606 0.0098733995
000020 45 9a fb bd 9b 61 ea 3c c2 5e 7e 3c 67 86 a3 3d
       -0.12285284 0.028610995 0.015525522 0.079846196
000030 62 45 65 3b 11 64 9e 3c 31 c0 12 bf 4d 5e 64 be
       0.0034983982 0.019334825 -0.5732451 -0.22301598
000040 72 08 69 3d 1b 75 98 bd 93 31 68 be 9e f9 a9 bd
       0.05689282 -0.07444211 -0.22675161 -0.08299564
000050 c5 24 80 be fa ff 87 bd 0e ee d1 bd 88 2f b8 bd
       -0.25028053 -0.066406205 -0.102504835 -0.08993441
000060 6e 39 a2 bd 31 de e6 3d 33 af 52 be 73 38 5a bb
       -0.0792111 0.112728484 -0.20574646 -0.0033297807
000070 f5 bd 82 bc f5 13 a3 be 03 aa 7d bb 35 94 f1 3c
       -0.01595972 -0.31851164 -0.0038706071 0.029489616
000080 29 dc d8 be 04 8c 10 be 95 e8 01 be 9d 2a b8 be
       -0.4235547 -0.14115912 -0.12686379 -0.3597001
000090 95 5e bb be c1 5d b7 bd ef 7b 0e 3e d4 27 7c bd
       -0.36595598 -0.08953429 0.13914464 -0.06156142
0000a0 12 dd 21 bd 81 ac 1b bd 2c d2 84 be da 12 81 bc
       -0.03951747 -0.03800631 -0.25941598 -0.01575606
0000b0 43 df b8 bc 30 ff 9b bd c9 69 2e be 8a 3b 8e be
       -0.022567397 -0.076170325 -0.17032541 -0.277798
0000c0 31 fb 0f be 59 89 59 bb b5 7f 01 be cd bb 04 bd
       -0.14060666 -0.0033193438 -0.12646373 -0.032405663
0000d0 fd 58 04 be 65 9c 50 3c 5f 10 93 bd e5 ff 9f 3e
       -0.12924571 0.0127326 -0.07180857 0.3124992
0000e0 06 49 28 bd af 86 12 be ff f1 ab be 70 c0 1f 3e
       -0.041085266 -0.1430919 -0.33583066 0.15600753
0000f0 ab 25 1c be 2c ed ec bd 88 22 47 3c 99 9f 9f be
       -0.15248744 -0.115686744 0.012154229 -0.3117645
000100 5a dd 69 be 9a 79 c4 be d8 b2 a0 be 03 01 9e bd
       -0.22838345 -0.38374025 -0.31386447 -0.07715037
000110 41 b0 d0 3e 27 89 dd 3c 38 78 43 3d b3 2e 06 bd
       0.4075947 0.027042938 0.04772207 -0.03275938
000120 fb b4 b3 bd 15 b7 93 be 9d 79 d6 bd 46 54 89 be
       -0.08774754 -0.28850618 -0.10472415 -0.26822108
000130 8e 5f 31 bd 43 da 41 3d 52 a7 dc bd 1a 9e 95 bd
       -0.04330402 0.04732729 -0.10774101 -0.07305546
000140 36 1e c8 be 5d 31 4d 3e 9d 23 4c bd 75 f7 dd 3d
       -0.3908555 0.20038362 -0.04983865 0.10838214
000150 90 3c 90 3d 29 f5 fc bb 26 5d 6c 3c d1 ce 39 3d
       0.070428014 -0.007719655 0.014426505 0.04536325
000160 0d 64 4c 3d 60 1c 55 bd ce b8 15 3d 5c fd 6e bd
       0.049900103 -0.052029014 0.036553197 -0.05834709
000170 2d 70 8a be 42 e7 09 be c3 8f 20 be 0e 80 59 3d
       -0.27038708 -0.13467124 -0.1567984 0.053100638
000180 3d 2c e7 bd 35 e6 cc bd 37 07 87 bd 52 b8 55 bc
       -0.11287735 -0.10004846 -0.06593173 -0.013044434
000190 41 82 8c be a6 15 a6 bd ec b2 5a 3d 1d f2 1d 3b
       -0.27443126 -0.08109598 0.05339329 0.002410061
0001a0 cc b5 14 be 47 90 91 be c9 20 df 3c 5b 6e 7e bd
       -0.14522475 -0.28430387 0.027237313 -0.062116962
0001b0 80 72 6c bd c1 0d 68 3d 8d bf 9b bd a4 c0 0b be
       -0.057726383 0.05665374 -0.07604895 -0.13647705
0001c0 f1 bc 04 bd 9f 6c 3f 3c 75 fe 91 3d b5 bc 2b bd
       -0.03240675 0.011683612 0.07128612 -0.041928012
0001d0 34 5a 93 be ed 8e 94 bd 23 2c ed bd 3a b3 02 bc
       -0.28779757 -0.072538234 -0.11580684 -0.007977301
0001e0 48 fa b2 bd 41 d2 65 be 45 f2 19 3c 69 6f b7 3d
       -0.087391436 -0.22443487 0.00939614 0.08956797
0001f0 3f e3 20 3d 0a a5 ef bc 72 61 d5 bc bd 51 f3 bd
       0.03927922 -0.029253501 -0.026047442 -0.11880825
000200 30 d5 af bd 73 8b 4f bd 9b fd aa bc 82 1d 8d 3c
       -0.08585584 -0.0506701 -0.020872882 0.017225984
000210 d6 5e 97 bd 32 d5 c4 bb 99 9e 9a 3d ce 03 35 bd
       -0.073911354 -0.00600686 0.07549781 -0.04419308
000220 81 cb 94 3d 27 95 94 ba 7f 93 5d 3c 99 0b 64 bd
       0.07265378 -0.0011335955 0.013523935 -0.055675123
000230 f7 51 ab 3c 6d 11 b1 3d 58 27 1c bc 56 3e 44 bd
       0.020913107 0.08645902 -0.009530865 -0.04791101
000240 9f 79 b6 bd 79 41 59 bd 13 bd fc bd f1 7b 9c bd
       -0.08909916 -0.053040955 -0.123407505 -0.076408274
000250 0b 38 8b bd 0d 21 91 3d ed fc 05 be 97 8f 73 bd
       -0.06797799 0.07086382 -0.13084765 -0.05946311
000260 be e5 70 bb 52 38 4c bd b6 ef 82 be 59 b3 a4 3d
       -0.003675803 -0.0498584 -0.2557351 0.0804202
000270 3a 23 1d 3d ff 1e ad bd 04 47 e0 bc 9a 07 9b 3d
       0.038363673 -0.08453178 -0.027377613 0.07569809
000280 71 9f 0c bd d6 9e e0 bd ca 79 c3 bc d8 2d 1e 3c
       -0.034331743 -0.109677956 -0.023861784 0.009654485
000290 71 6e 3f bd 2c 02 d4 bc 30 29 71 3d 6d 75 04 bd
       -0.046736185 -0.025879942 0.05887717 -0.03233855
0002a0 41 21 93 3d ad 85 87 bc e8 ab f9 bd d5 51 e9 3c
       0.07184077 -0.016543234 -0.12190992 0.028481403
0002b0 19 d8 0a bd 9e 2f 81 3c 47 e0 89 bc 22 93 3e bb
       -0.033897493 0.015769776 -0.016830577 -0.0029079397
0002c0 88 e9 0a be 98 59 bd bd 55 bd 3f 3d 8f 21 e6 bc
       -0.13565648 -0.09245604 0.04681142 -0.028092174
0002d0 50 40 4a bd 44 3d 28 be 9d 05 a3 bd 20 d9 82 3d
       -0.04937774 -0.16429621 -0.07960055 0.063890696
0002e0 2f 52 fa bd 5b 46 0e 3d e8 f3 d2 bb 18 19 47 be
       -0.122227065 0.034735065 -0.0064377673 -0.19443166
0002f0 e1 11 fb 3c 52 d1 6e be 2e df 2b 3d 2f ab 1c bd
       0.030648174 -0.23322037 0.041960888 -0.03824919
000300 2f 30 19 be ce 42 1a 3d 94 79 9a bd 4d 4a 4e 3d
       -0.14959787 0.037661366 -0.075427204 0.050363827
000310 b1 cb 06 be 6b 47 29 3d 4a ad 00 be 31 63 d0 3d
       -0.1316364 0.041327875 -0.12566105 0.10175169
000320 e9 90 23 bd 07 d4 ea bc ce a5 09 3c df 8c 07 3d
       -0.03993312 -0.028665556 0.008401347 0.03309333
000330 3e 4b e5 3c 14 7e 88 3c 18 38 2b bd 4a 07 df 3d
       0.02798998 0.016661681 -0.041801542 0.10890062
000340 0d 64 99 be 66 71 f6 bd 28 dc 79 bd eb 06 c6 3c
       -0.29959145 -0.12033348 -0.061000973 0.02417322
000350 46 d4 7b 3c 6e 9b b5 3c f5 64 fb bc bc 61 40 3d
       0.015370434 0.022168841 -0.030687789 0.046968207
000360 56 d2 e2 bd cb 80 9f 3d 1c 8c 08 3d 9a 02 87 3d
       -0.11075275 0.07788237 0.033336744 0.06592293
000370 32 18 53 3b e4 db 27 bd dd 23 f3 bd c0 e3 11 3d
       0.0032210466 -0.04098119 -0.11872075 0.03561759
000380 e8 b2 88 bd c9 7b 9a bd dc 62 48 3c 62 26 cb 3b
       -0.06674749 -0.075431414 0.012230601 0.006199644
000390 ac 14 fc bd c7 a1 44 bd 75 0d 96 bd 6f 44 0d bc
       -0.1230863 -0.048005845 -0.073267855 -0.008622273
0003a0 69 98 8a bc 1b 61 03 3d c5 bb 9f bd 3b 85 d0 bd
       -0.016918378 0.03207503 -0.07799486 -0.10181662
0003b0 d3 43 b3 3c 33 e0 05 be 05 cd 09 ba c8 69 cf 3c
       0.021882927 -0.13073806 -0.00052566855 0.025318995
0003c0 88 aa b7 bc 6b 9e 8c 3d d2 5f 8a bd 6a b6 aa bc
       -0.022420183 0.06866153 -0.067565575 -0.020838935
0003d0 17 ee 02 be bc 0c 6a 3d 74 a9 b7 bd 29 06 c5 bc
       -0.12786137 0.05714105 -0.089678675 -0.024050789
0003e0 79 5d ce 3a c3 60 9e 3c 62 66 ea 3c 4b 8a 39 be
       0.001574441 0.019333249 0.028613273 -0.18119161
0003f0 5c 87 10 bd 93 20 4c bc 8d 1c 63 ba 3b b9 99 bd
       -0.03528534 -0.012458938 -0.0008663617 -0.07506033

arr_9 f4 [32]
000000 ff 09 97 be f6 56 fb bd 59 3c 88 3d 1d b4 69 3c
       -0.29499814 -0.12272446 0.066521354 0.014264134
000010 e0 7a ea bc 0d c0 75 3d ea f2 c0 bd b8 81 3b 3e
       -0.028623044 0.059997607 -0.09421332 0.18311203
000020 22 41 50 bd f5 e7 6a 3d 9c cb e5 bc c5 e1 e6 3c
       -0.050843365 0.057350118 -0.02805119 0.028183827
000030 f0 56 6e 3e 52 be 39 3e 20 e3 5e 3d 2e d4 56 be
       0.23275352 0.18139008 0.054415822 -0.20979378
000040 bb 81 10 3e 8f 04 95 bd f2 68 bf bd 56 6e 8a 3e
       0.14111988 -0.0727626 -0.093461886 0.27037305
000050 42 1c 00 be 2e 4e ff bd 96 bf 3f bc 2f 5b df bd
       -0.1251078 -0.124660835 -0.0117033925 -0.10906064
000060 13 e5 1e be ba fb d0 bc d0 ae 32 3e b3 f6 9d be
       -0.15517072 -0.025510658 0.17449498 -0.3085228
000070 a0 5c 84 be c0 8c 03 be f0 e1 98 3e ae 7c 8b 3e
       -0.25851917 -0.1284666 0.29859877 0.2724356

arr_10 f4 [10, 32]
000000 cc da 31 bc e9 c4 ff 3d 0f 30 5c 3e 9e 18 06 be
       -0.010855388 0.124887295 0.21502708 -0.13095328
000010 94 d7 d0 3e 60 29 4e 3e ec 5d 12 be 9d 00 4c be
       0.40789473 0.20132971 -0.14293641 -0.19922109
000020 1e 74 9c be 13 4a ff bd 81 d8 fc 3d 04 19 e2 3d
       -0.3055734 -0.124653004 0.12345982 0.110399276
000030 e6 ad 03 be 06 b7 02 3d 7b 96 54 3c 73 31 4d 3d
       -0.12859306 0.031912826 0.01297533 0.050095987
000040 30 3b 27 3e 5b 9a a5 3c e5 23 fd 3b af 79 ea be
       0.16331172 0.020215204 0.007725226 -0.45795962
000050 12 88 5a bd ca e8 f7 bd d4 78 2b bd 2d 88 e9 bd
       -0.053352423 -0.12104948 -0.041863278 -0.114029266
000060 f9 a7 14 bb b8 cc 09 be 90 0b 85 3e 54 ca 12 be
       -0.0022683127 -0.13457 0.25985384 -0.14334995
000070 9b 29 92 bd 6c e3 8d bd d7 de b7 be e7 e7 1c be
       -0.07136842 -0.06928143 -0.359122 -0.15322839
000080 51 d2 c8 3c c3 68 a2 bd 35 9b 9a be cc fc c2 3c
       0.02451435 -0.07930138 -0.3019654 0.023802184
000090 3a 67 94 3d 78 26 91 be 2d 6e 33 3d 14 f1 57 be
       0.072462514 -0.28349662 0.043806244 -0.21088058
0000a0 76 e2 57 be b5 11 23 bd 6d 1f ae 3e 26 35 00 be
       -0.21082482 -0.03981181 0.3400835 -0.12520275
0000b0 19 17 95 be bc a4 61 bd 94 ef ac 3e da bc e6 3c
       -0.29119185 -0.055088744 0.33776534 0.028166223
0000c0 2c f7 d7 3c c1 e6 1b 3c 94 7c 5b bc d3 87 c2 3e
       0.026362978 0.009515465 -0.013396401 0.3799425
0000d0 48 10 cb 3d d3 39 24 b8 b9 cb e3 bc be 8d 24 bb
       0.09915215 -3.91545e-05 -0.027807103 -0.00251089
0000e0 b4 7b d5 bd 84 65 47 3e b1 77 97 be 10 f3 2c 3d
       -0.10423985 0.19472319 -0.29583505 0.04222399
0000f0 53 66 37 3e 02 c1 21 3e 15 c9 0e bf f5 0b 1d be
       0.17910127 0.15796283 -0.55775577 -0.15336592
000100 ed 6f 09 be c1 fb 94 bd 9e c4 1a 3e 7f bf b2 bb
       -0.13421603 -0.07274581 0.15114066 -0.005454957
000110 c3 96 b1 3d 77 f2 98 bd 15 f1 12 3d ce a4 0d 3f
       0.08671334 -0.074681215 0.035874445 0.55329597
000120 4e fa b5 bd 32 c7 6b bd 26 43 55 be 72 56 e9 3a
       -0.088856325 -0.057563014 -0.20826396 0.0017802252
000130 4e 04 67 be f0 eb 8a bd 11 25 a1 bd d4 fd 26 3c
       -0.22560236 -0.06783283 -0.07868398 0.010192353
000140 d8 c7 56 bd 35 e6 94 3d d2 e9 c2 bd 85 95 31 bb
       -0.05243668 0.07270471 -0.09517254 -0.0027097177
000150 55 ea f0 bd f8 ca 24 bd ab cf f0 bc cd eb 16 3d
       -0.11763445 -0.04023263 -0.029395899 0.03684597
000160 8c 31 4a 3d 5a 84 64 bc 41 51 c6 3d 6f 0e 12 3e
       0.049363658 -0.013947571 0.09683467 0.14263318
000170 c2 b8 50 3e eb e5 de 3c 57 3a e7 3d b9 78 30 bd
       0.2038298 0.027209243 0.11290424 -0.04308388
000180 64 43 8e be e6 cf 1e be 89 2d e6 3d 4c 96 84 3d
       -0.2778579 -0.15508994 0.11239154 0.06473979
000190 e7 af e7 3c 4a 17 28 bd 2c 7f ce 3c 00 1c 14 be
       0.028282119 -0.041037835 0.025207125 -0.14463806
0001a0 c1 51 a1 bd ad 91 45 be a9 59 95 be db 71 8f bd
       -0.078769214 -0.19293852 -0.29169968 -0.07004138
0001b0 97 bf d4 3d 63 38 aa be d0 82 74 be b3 b5 c0 3d
       0.10388105 -0.33246145 -0.23878026 0.094096564
0001c0 f8 46 91 3d ea 24 04 bc 75 56 69 3e 4e a3 94 3e
       0.07093614 -0.008065442 0.22786887 0.29030842
0001d0 36 f0 11 3e f3 7f a6 3c 4b b9 8d bd 20 a4 8c bd
       0.1425179 0.020324683 -0.069201075 -0.06867242
0001e0 b7 32 2b be ad e5 9a bd 06 9a be 3c fd c5 54 3e
       -0.16718565 -0.075633384 0.023266803 0.20778652
0001f0 87 79 00 be b0 f8 94 3c 4e 94 e1 3d b1 71 5c 3e
       -0.12546359 0.01818499 0.11014615 0.21527745
000200 8a de fd 3d be a6 07 3e 6d 48 d1 3d 00 58 08 3d
       0.123959616 0.13247201 0.10218892 0.03328705
000210 1e 8f ae be 56 39 3f be 47 8e 36 3e 56 35 cc bd
       -0.34093565 -0.18674216 0.17827712 -0.099711105
000220 02 c1 d3 bd f4 0b 0a be b5 4c 65 be dc 56 f5 3c
       -0.10339548 -0.13481122 -0.22392543 0.029948644
000230 fd b3 ea bc 13 ee f9 3e 65 e5 34 be 2c e6 01 be
       -0.028650278 0.4881445 -0.17665632 -0.1268546
000240 b1 83 a0 bc d9 3a da 3d 7b b7 e0 bd 19 23 21 3e
       -0.019594045 0.106557555 -0.10972496 0.15736045
000250 00 21 2b 3e bc 67 ba bd 7c a6 0c bd 6c 3e 68 be
       0.16711807 -0.09101817 -0.03433846 -0.22680062
000260 a3 63 02 3a 6e ab b7 3d b9 7e 58 3e 64 71 b5 be
       0.00049739535 0.089682445 0.21142091 -0.35438073
000270 4b 8d 90 be 0c ac c2 3c 3a 64 b8 3d ae 31 46 be
       -0.28232798 0.023763679 0.09003492 -0.19354889
000280 e9 6d 24 be d3 88 8c 3d c5 f3 71 be 4f 46 75 bd
       -0.16057552 0.06862035 -0.23628147 -0.059881505
000290 5e d4 f3 bd a9 db 5b be eb 3e 41 be 2c c4 4e bd
       -0.1190574 -0.21470512 -0.18871658 -0.050480053
0002a0 bc 13 c4 bc 23 65 57 3d 90 a5 03 be 7b d7 49 bd
       -0.023935191 0.052586686 -0.12856126 -0.049277764
0002b0 cf 9c 2b bd 99 68 11 be 4e 92 21 be d8 04 a3 bc
       -0.04189759 -0.14200057 -0.15778467 -0.01989977
0002c0 38 a8 d2 bd 19 4b 21 be 08 5f 70 bd 10 08 87 bd
       -0.102859914 -0.15751304 -0.05868438 -0.06593335
0002d0 3f 99 9d bd b3 f4 f4 bd 0d 13 a1 bd f0 66 2d 3e
       -0.07695245 -0.11960735 -0.07864962 0.16933799
0002e0 26 2a 55 3d cf 18 02 3c 9a c3 8e 3e fd 02 7e bd
       0.05204215 0.007940485 0.27883607 -0.06201457
0002f0 f2 25 2c 3e a7 ed 22 3e cd 2e 81 3e b1 27 db 3e
       0.1681135 0.1591097 0.2523102 0.4280372
000300 42 63 8b bd 1f 24 c8 bc d0 59 a7 be 33 bd 22 bd
       -0.06806041 -0.024431286 -0.3268571 -0.039731216
000310 38 f7 47 bc bb 5b 2e 3d 06 1f 88 bc 16 6c 6c 3e
       -0.012204938 0.04256795 -0.016616356 0.23088107
000320 b3 09 bd 3c f5 60 29 be b3 32 51 be 07 78 70 bd
       0.023075914 -0.16540892 -0.20429496 -0.058708217
000330 01 68 ca 3e ad f2 45 be c9 02 15 3e c8 f5 66 3e
       0.39532474 -0.19330855 0.14551844 0.22554696
000340 ff 57 43 be c7 09 a8 bc df 09 84 3d e8 81 d2 3d
       -0.19076537 -0.020512475 0.06447195 0.10278684
000350 6f 3c 9b 3d 91 f2 1d 3c df 58 72 3d 0e 29 84 3d
       0.07579886 0.009640352 0.059166785 0.06453143
000360 d5 3e 85 be 81 1f 8d bd 1b 42 e3 3d 5c f0 c2 3e
       -0.260245 -0.068907745 0.11096593 0.38074005
000370 61 30 c1 bd 21 b9 30 3e 4b 7b 8e 3e 42 1d d5 be
       -0.09433056 0.17258121 0.2782844 -0.41623884
000380 6d 4f 50 be ba 51 cb 3b 18 31 85 be 48 7c f1 bd
       -0.20342799 0.006204811 -0.26014018 -0.11791283
000390 16 a3 f0 3d 8f 45 5d 3e 7e d5 23 be 8a 95 85 bd
       0.11749856 0.21608566 -0.1599941 -0.06522663
0003a0 9b c0 f7 3c db 7e 04 3f eb 97 52 3b c1 93 90 3d
       0.030243209 0.51756066 0.0032134007 0.07059432
0003b0 0a b5 5f be 6f ce 6e 3e eb aa 00 bf c0 f5 ab be
       -0.21846405 0.23320936 -0.502608 -0.3358593
0003c0 75 b3 7a 3e a7 9a 9f bd fc 11 3b be ec 05 4f 3c
       0.2448252 -0.077931695 -0.18268579 0.012635689
0003d0 06 98 e1 bc f4 80 84 3d 40 6d 73 bd cc a2 15 3b
       -0.02753831 0.06469908 -0.05943036 0.002283263
0003e0 b2 54 42 3d bb 7b a7 bd 4f 3a 8e be 03 b2 da bd
       0.047444053 -0.081778966 -0.2777886 -0.10678484
0003f0 68 1f 31 3e db 25 19 be 81 50 3a 3e 29 1a 7e 3d
       0.17297137 -0.14955847 0.18194772 0.062036667

arr_11 f4 [10]
000000 83 16 57 be 35 bc 19 be f9 dd 6e be b1 3f d6 3d
       -0.21004681 -0.15013202 -0.23326863 0.10461367
000010 1e 4c 03 bd db 8d a5 3d 4a 3c fb 3c b4 35 93 3e
       -0.032055013 0.080836974 0.030668397 0.2875191
000020 5a 0b 1b 3e 1a 32 50 3d
       0.15141049 0.05082903
